model_cnn.pth (torch, 435171 bytes, 8 tensors)

conv1.weight f4 [6, 3, 5, 5]
00000000: d8e1 b2bd 8ab3 9b3d 2891 babd 77a2 d2bc
00000010: f17a abbd c66f dfbd c4cd 6b3d c676 5cbd
00000020: a17d 523d b993 a43d b48d ebbd 1b6b b3bd
00000030: 53c3 09bc 88b2 8cbd ddde 183d ee17 ad3d
00000040: f3cb b4bd b9e5 c7bd 8081 d1bc 6caa 9c3d
00000050: fccf bdbd 81bf 943d 303a eb3d f4a8 8abd
00000060: 73b8 2f3d 60dc 1bbd 663c 84bd a9eb a53c
00000070: 4a30 71bd 9254 bfbd dbfd 173d c6d2 0c3d
00000080: b71e 823d ad81 aebd c9f2 81bd e40f e63d
00000090: 791b 783d 883a 5b3d aca6 96bd 0404 9ebc
000000a0: afe2 42bd ad8e 873d b33d 933c 91d7 afbd
000000b0: 2c0a d8bc 3be2 1cbd 754a d43d 5f52 d73d
000000c0: d7eb c0bc 2d93 49bd cf20 8e3d 1ed5 99bd
000000d0: 9f9f e3bd c475 c03d 3a01 1fbd 29dd 183d
000000e0: dd77 cfbc 0d47 82bd 8e5a 0c3d a9b4 68bd
000000f0: d6ba 323c 3ce4 1d3d b39b e03d 6103 ac3d
00000100: d75c 153d d2e5 cabd ebdf 90bd ff8c e0bd
00000110: 5c18 c63d 0ad0 053b 845b cfbc 039d 74bd
00000120: 492c b5bd becb 8d3c 587b 9b3d ae34 bebb
00000130: 165c cb3d 4ada 5ebc 731b 7b3c 6c82 b43d
00000140: 0f78 8a3d 34e9 433c 7b7b cdbc e4b4 b1ba
00000150: 582c 0abc 1926 fcbc 23ac 023a f070 7b3d
00000160: 3a84 9dbd f559 d03d 35d8 7d3d 4592 d2bc
00000170: 23eb 3f3d f2af 0d3d 8467 bf3d f8ce b73d
00000180: da3f 263d 5042 cdbd b347 d63d 4536 84bd
00000190: 16d4 973c 799b c53d 44b8 a0bd 9108 82bd
000001a0: daec a23c 5b66 cabd 3b6e 8b3d 2714 503d
000001b0: 3c7f b8bc cc6e ab3d e20e 293d c646 77bd
000001c0: 889d 4c3d 643c fa3c 4901 863c 6b00 25bd
000001d0: b3b5 8cbd 09ef 11bd 2261 4a3d c9a9 b8bc
000001e0: 24d4 aebd 1078 90bd ed42 f53c b086 933d
000001f0: 5485 503d 3ff6 d73d d5e1 eabd dffc 32bd
00000200: a797 e13d 81c9 ce3c b47b 503c 4907 70bd
00000210: 68ec b0bd 90ae e7bd 50dd 823d b5ea 87bb
00000220: 911e ae3d 1292 cebd 92f1 aa3d eb2b 883d
00000230: fd17 c8bc 5c37 d9bd bc06 ba3d ad9d 9fbd
00000240: 100c b73d 4f26 863d aa2c b23c a177 643d
00000250: 4f7f 0fbd 80fe 053d 5a00 823d fb21 9abd
00000260: e110 c0bb 4395 a4bc abf0 963b e37e d73c
00000270: 8c5b 9d3c a138 b63c 093a 9ebd 114f 34bd
00000280: 5e70 9d3d 40ee cf3d 168b e23d d6d4 c7bd
00000290: 22a9 da3d 006b 4cbd 0a6d b9bd c00e 113d
000002a0: 3ea2 aabd 8c38 833d afab 6cbd 784c 6b3d
000002b0: 35cf 5d3c e099 2a3d 574a a83a 2a25 82bd
000002c0: 1c1d 03bd 1dd3 a8bd 8dfe 9e3d 4a73 9d3d
000002d0: 9cb4 5cbd eac6 5b3d 2004 ddbc d627 9bbd
000002e0: 2283 97bd 93c4 81bd 7c78 e83d 0f22 8e3d
000002f0: d00c d0bd 57c8 823d 389f 1f3d d14a 14bd
00000300: 4fa6 14ba c7ce d1bd 1cf1 ccbd 14b0 9a3c
00000310: 2042 b0bd 78b6 1b3d c523 a9bd 8779 90bd
00000320: 6298 c0bd 6ea1 9e3c f08d a43d 99f4 803c
00000330: 5503 c33d d4f5 debc e91b ab3d 8133 c63b
00000340: a85d a43d 085d d43b f357 d5bb 1378 a4bb
00000350: 67ed 90bd e419 dd3d af47 d9bd 7457 ad3d
00000360: de16 be3d 2872 d6ba db97 5c3d 16c8 a0bd
00000370: 6e9f 3fbc 4c8a b6bc 65da 2f3d 2045 953d
00000380: a1bb d5bd e012 d03d 78db d2bd 6786 d53d
00000390: ec53 46bd b61b 3ebd ed8c 8d3d 3f45 dbbd
000003a0: 5a81 b73d 4a6d 58bd 19a9 8e3d d95b 503d
000003b0: 42cc d93d 2990 763d d233 833d dd2b d7bd
000003c0: 7d34 1dbc 69e5 42bd 44f5 45bb 1075 b4bd
000003d0: 4702 3f3d 1ad0 99bd 9ccc 12bd ab21 d63d
000003e0: 6bd2 ef3c bbcb e13b 8d97 b53c f551 7dbd
000003f0: d9da 153a a63e 8ebd d4a5 ff3c b406 b4bd
-0.087344825 0.07602604 -0.091097176 -0.025712235 -0.083730586 -0.10909991 0.05756928 -0.05382421
0.05138934 0.08035988 -0.11501637 -0.08760663 -0.008408385 -0.0686999 0.037321914 0.0845183
-0.08827963 -0.09760613 -0.025574446 0.07649693 -0.092681855 0.07263089 0.11485708 -0.067705065
0.042900514 -0.038051963 -0.064568326 0.020253973 -0.058883943 -0.093423024 0.03710733 0.034380697
0.06353515 -0.085208274 -0.06345136 0.112335 0.060573075 0.053522617 -0.07356009 -0.019289024
-0.047579464 0.0661901 0.017973756 -0.08586038 -0.026372038 -0.038301688 0.10365764 0.10513758
-0.023549957 -0.049212623 0.069398515 -0.07511352 -0.1111443 0.09397462 -0.03881953 0.03732029
-0.02532571 -0.06361208 0.034266047 -0.056812916 0.010908803 0.03854774 0.10967197 0.08399082
0.036465492 -0.09907116 -0.07073959 -0.10964393 0.09672615 0.002041819 -0.025312193 -0.05972005
-0.08846337 0.017309066 0.07591885 -0.0058046198 0.099296734 -0.013601849 0.015326369 0.088139385
0.067611806 0.011957455 -0.025083294 -0.0013557938 -0.008433424 -0.030779885 0.0004984757 0.061387002
-0.07691236 0.10173408 0.06197377 -0.025704512 0.046855103 0.034591623 0.09345916 0.08975023
0.040588237 -0.10022414 0.10462894 -0.064556636 0.018533748 0.09648795 -0.07847646 -0.0634929
0.01988833 -0.09882804 0.06808134 0.05080047 -0.022521608 0.08370742 0.04127396 -0.06037023
0.04995492 0.030546375 0.016358035 -0.0402836 -0.06870594 -0.035628352 0.04940904 -0.022541897
-0.08536556 -0.0705415 0.02993914 0.07203424 0.0509084 0.105450146 -0.11468855 -0.043698188
0.110152535 0.025242569 0.012724806 -0.058600698 -0.08638841 -0.11312592 0.06389868 -0.0041478523
0.08501924 -0.100864545 0.08346857 0.06649002 -0.024425501 -0.10606262 0.09083316 -0.07793746
0.089378476 0.065502755 0.021749813 0.05577815 -0.03503352 0.032713413 0.06347723 -0.075260125
-0.005861387 -0.020090705 0.0046063266 0.026305621 0.019208692 0.0222438 -0.07725913 -0.044020716
0.07687448 0.101528645 0.11061685 -0.09757392 0.10676791 -0.04990673 -0.09054001 0.035414457
-0.083317265 0.0640727 -0.057780918 0.057445973 0.013538172 0.041650653 0.0012839538 -0.06354745
-0.032010183 -0.08243392 0.077633955 0.07688005 -0.05388318 0.053656496 -0.026979506 -0.075759575
-0.073980585 -0.06336322 0.113511056 0.0694009 -0.10158694 0.06385868 0.038970202 -0.036204163
-0.0005670534 -0.10244518 -0.100069255 0.018882789 -0.08606362 0.038015813 -0.082587756 -0.070544295
-0.09404065 0.019364085 0.08034885 0.015741633 0.0952212 -0.02721683 0.08354933 0.00604862
0.08025676 0.0064808168 -0.0065107285 -0.005019197 -0.07076531 0.10795954 -0.10609376 0.08463946
0.09281705 -0.0016360926 0.05385576 -0.07850663 -0.011695726 -0.022282742 0.042932887 0.07288575
-0.10436178 0.1015985 -0.102957666 0.10426026 -0.048419878 -0.046413146 0.06911645 -0.10706567
0.08960219 -0.0528386 0.069658466 0.050868843 0.10634662 0.060196076 0.06406368 -0.10506413
-0.009595034 -0.047582064 -0.0030206004 -0.088113904 0.04663303 -0.07510395 -0.035839662 0.104556404
0.02927514 0.0068907416 0.022166992 -0.06184574 0.000571651 -0.06945543 0.031207003 -0.08790341

conv1.bias f4 [6]
00000000: e295 ee3b 3768 413d 1394 82bd 8274 dabd
00000010: c642 953d 7b65 97bd
0.007281051 0.047218528 -0.06375899 -0.10666753 0.07288127 -0.07392403

conv2.weight f4 [16, 6, 5, 5]
00000000: 2864 c83c 06eb 98bd 4a5c 75bd 88e6 7e3c
00000010: 766f 7c3c 5fdf 00bd 7534 c2bc ba26 a43d
00000020: 23c6 9b3d c2d3 6b3a 3679 44bc 65e9 983d
00000030: 07de f8bc bb8d eabb 1187 4abd 2afb 8d3d
00000040: b410 03bd 6901 01bc fe44 50bd 05ec 8bbd
00000050: 4e08 993c 2413 9dbd 832d 02bd 3a33 9a3d
00000060: 1fb1 8ebd 513f 693d 8fd1 a1bd 2cb0 4cbd
00000070: af74 b43c 1708 fa3c 7686 8b3a 8e33 f4bc
00000080: 63da 453b 4ca4 84bc b7f4 503d 3a8a 02bb
00000090: 8047 0c3d 5a19 893d ac23 433d e7f3 07bd
000000a0: aa2b 4cbd 3e69 7b3c 9cd0 0f3d 49d2 38bd
000000b0: cfba 8bbd 4029 9bbd a5d5 ac3c ec10 e13c
000000c0: 9a4e a63d ede5 1fbd 4aee 753d 6306 1abd
000000d0: 674c 9e3d c10e 87bc 51d6 8cbd a8c6 203d
000000e0: a0dd 7fbd 4505 1dbc fbc9 6fbd 0fad 6b3b
000000f0: 1202 9ebd 10cd 5d3d f2cf a43d 2748 07bc
00000100: c8f5 d2bb 9db7 aa3c 4136 c2bc f820 7ebd
00000110: 105e 973d 5acf 0bbd b1a4 90bc 95b4 823d
00000120: dde1 3abd 17f5 1ebd 2cb5 91bd 3b30 f13c
00000130: 8ad6 803d 844d 04bd 6249 1b3d 4fa2 783d
00000140: 876e 94bd b6fe a4bd 755f c6bc 396a 4a3d
00000150: 3b1a 51bd c152 93bd 7006 ff3c a995 abbc
00000160: a163 273d 1fe7 503d c53b 2d3c e66a 5cbd
00000170: dde3 433d 5c3e 66bd 3554 603d 6d5a b03c
00000180: 1021 2fbd 14e6 1fbc c4a9 693c eaaf 16bc
00000190: 7070 7ebd ba38 a0bd a757 6fbd 661e 803d
000001a0: 67a1 9dbd 0f4d ccbc 8bbe 0bbd 9e92 99bc
000001b0: cfd3 ac3c 012a a4bd 14ac 253d 9d1e d7bc
000001c0: 38b7 38bd acde 553c dfdc acbc 7d0f a13c
000001d0: bbb3 543d 1366 8a3c a855 fabc 604a a1bd
000001e0: 4e9a 2fbd fefd 993d 6ce6 b93c b08b 03bd
000001f0: 3282 5bbd 3255 703d fdae 32bd 73ef 31bd
00000200: 499e 973d e8f5 8cbd 0595 9abd a0a3 a5bd
00000210: 53f6 763d 7d5e 8b3d 296a 3dbd bad2 08bc
00000220: 691a a53d c38f eebc 0cd7 623d 87fa fabb
00000230: b259 913d eea9 f63c 3e01 35bd 6dcf 21bd
00000240: 1dc5 323d 0586 a5bd 0a77 a1bd 01a1 bb3c
00000250: 4449 90bd f25d 343c e773 babc 1e66 943c
00000260: 8141 873d a609 7ebd 8bf8 553d a993 dc3c
00000270: fc66 6dbd f303 9fbd d2cb 6b3d 98ed 32bd
00000280: 40d3 cc3c 3a96 3fbd 7fc2 903d c800 8a3d
00000290: cd5c 493d 5fad 96bd fb4a 9dbc 5e3f eabc
000002a0: bd4f 39bd 7d67 163c edaa c3bc c388 003d
000002b0: ca11 743d 5d1d 953d e78b b8bc 4353 04bd
000002c0: 2b62 333d 07c2 ffbc b62b 463b 22d0 0c3d
000002d0: 11a2 17bd 94d0 06bd 8e35 7e3b 09a9 a1bd
000002e0: 3ea5 2e3d 1db7 33bd 6945 1fbd cf73 a6bd
000002f0: e373 973d ebc6 96bd 58a8 f0bb fd88 debc
00000300: 52bd a13d 1329 5b3d 9987 bd3c 7e05 25bc
00000310: 5026 3e3d 7916 393d 9e67 c43c 2e0c 143d
00000320: 31cf 8e3d f697 513d 9f48 823d 3423 06bd
00000330: c6e2 743d 807b 223d 82c8 5cbd 07d7 0abd
00000340: 4d13 1fbc 5592 03bd 5fb2 27bc 6107 8f3d
00000350: e0a8 20bd 4e1f 293c 4b36 913c 4348 6bbd
00000360: c88d 98bd d0b5 4c3d 32d9 3dbd 6413 473c
00000370: 778c f7bb e432 f5bc 3505 063d 66fb f8bb
00000380: 8f95 d73c ac10 21bc 5dde 503c 2754 37bd
00000390: 64cb 0e3d a2da 7fbd 3fd1 9cbd e01d a03d
000003a0: 3bc8 83bd 219d 8ebd bf34 c7bc 8c80 8dbd
000003b0: c04c 1fbd 4a17 4fbc 153d 153d 23f0 903d
000003c0: db53 89bd 3182 a0bc 9a0b 38bd f0a3 0bbd
000003d0: 466a 83bb bdd2 f83c ea40 d1bc ae95 4a3d
000003e0: 5439 d0bc 26d4 9cbd b6a1 37bd 0bae 8fbd
000003f0: a1f3 22bd 1125 4abb 4a4b 41bd 598c b639
0.02446182 -0.07466702 -0.059902467 0.015557893 0.015407434 -0.031463023 -0.023706654 0.08015199
0.07606151 0.0008996093 -0.01199179 0.074663915 -0.030379308 -0.007158009 -0.049445216 0.06932671
-0.03199835 -0.007873871 -0.050847046 -0.068321265 0.018680718 -0.076696664 -0.031781685 0.07529302
-0.06967377 0.05694515 -0.07901298 -0.049972698 0.022028295 0.030521436 0.0010644931 -0.02980974
0.0030189983 -0.016191624 0.05101463 -0.0019918815 0.034247875 0.066942886 0.04764144 -0.033191588
-0.04984633 0.015344916 0.035111055 -0.04512242 -0.0682274 -0.07576227 0.021097967 0.02747389
0.08120461 -0.039037634 0.060041703 -0.037603747 0.07729416 -0.016486527 -0.06876815 0.039251953
-0.062467217 -0.009583776 -0.058542233 0.0035961305 -0.07715239 0.05415064 0.08047475 -0.008256949
-0.006437991 0.020839507 -0.02370751 -0.06204316 0.07390988 -0.034133293 -0.017656656 0.063820995
-0.045625556 -0.038807955 -0.07114634 0.029441943 0.0629092 -0.032300487 0.03791178 0.060701665
-0.07247644 -0.08056395 -0.02421544 0.049417708 -0.051050406 -0.071935184 0.031131 -0.020945387
0.040866498 0.051001664 0.010573332 -0.053812884 0.04782473 -0.056211814 0.054767806 0.021527493
-0.04275614 -0.009759445 0.014261667 -0.009197215 -0.062118948 -0.0782332 -0.0584332 0.06255798
-0.07696801 -0.024939088 -0.034117263 -0.01874667 0.021097092 -0.08015824 0.04044731 -0.026259715
-0.045096606 0.013053577 -0.021101413 0.019660706 0.051929217 0.016894376 -0.030558422 -0.07875514
-0.042871766 0.07519148 0.022692882 -0.03211564 -0.05359096 0.058675 -0.043623913 -0.043441247
0.074032374 -0.068828404 -0.075479545 -0.080878496 0.060293507 0.068051316 -0.04624382 -0.008351022
0.08061678 -0.029121285 0.055380866 -0.0076592597 0.07097186 0.030110326 -0.044190638 -0.039504457
0.043645013 -0.08082203 -0.07884033 0.022903921 -0.07045224 0.011008726 -0.022760345 0.0181151
0.06604291 -0.06202092 0.052238982 0.026925879 -0.05795954 -0.07764425 0.057567425 -0.04368362
0.025003076 -0.046774127 0.07068347 0.0673843 0.049160767 -0.07357287 -0.019200793 -0.028594669
-0.04524206 0.009179947 -0.023885215 0.031380426 0.059587277 0.07280991 -0.022527648 -0.032305967
0.043794792 -0.03122045 0.0030238456 0.03437818 -0.037019793 -0.03291376 0.0038789245 -0.07893569
0.042638056 -0.043875802 -0.038884554 -0.081275575 0.073951505 -0.07362159 -0.007344287 -0.02716493
0.07897438 0.05350597 0.023135947 -0.01007211 0.046423256 0.045187447 0.02397519 0.036144428
0.069731124 0.051170312 0.063615076 -0.032748416 0.05978658 0.03966856 -0.053902157 -0.033896472
-0.0097091915 -0.032121975 -0.010235398 0.06983829 -0.03922355 0.010322405 0.017726084 -0.05744196
-0.074489176 0.049978077 -0.04634971 0.012150619 -0.0075545865 -0.029931493 0.03271981 -0.0075983284
0.026316432 -0.009830635 0.012748328 -0.04475799 0.034861937 -0.062464364 -0.07657098 0.07818198
-0.06434675 -0.06963564 -0.024317143 -0.06909284 -0.038891554 -0.01263983 0.036435205 0.070770524
-0.06705447 -0.01959333 -0.04493294 -0.03409189 -0.0040104715 0.030373925 -0.025543649 0.049459152
-0.025417961 -0.076576516 -0.044831954 -0.07015618 -0.039783124 -0.0030844847 -0.047190942 0.00034818312

conv2.bias f4 [16]
00000000: 492c 133d c388 a6bd dd5c 833c 0539 773d
00000010: f828 2d3d 1bea 643d 3bb4 39bc 3528 5739
00000020: 79f8 d5bb eb53 96bd 3945 bc3c a9cc 90bc
00000030: f235 933d b323 8a3d 9b18 533d f7f6 213d
0.035930905 -0.08131554 0.016035492 0.060357112 0.0422754 0.055887323 -0.011334474 0.00020518976
-0.0065298644 -0.07340225 0.022982227 -0.017675715 0.071880236 0.0674509 0.051537137 0.039542165

fc1.weight f4 [256, 400]
00000000: 9ac7 4b3c b2b4 273d 8588 43bd 8273 16bd
00000010: 5aa7 b73b da74 0fbd 337e e83a 2b85 35bd
00000020: e865 2dbd 8711 2d3c abc6 22bd 20c8 0d3c
00000030: 3a55 dd3c 9a7d a03c 900b ac3c dfa3 1fbd
00000040: 003d d93b 3378 f1ba fd67 de3c 2b7c 3dbd
00000050: 181b 313d 6784 dd3a 5d1a b93c 4d85 f5bc
00000060: 3346 c0bc aa87 443d e760 4abb 2836 15bd
00000070: e241 1cbd edf6 53bc a09a 42bd b75c e53c
00000080: 605a 6ebc 5f22 393d f7b2 0f3d 3b52 4b3d
00000090: c0ca 063c 3a69 c23c f259 2fbd e0cd c33c
000000a0: 77ac c23c 338d 62bc d3dd 213c 676e 7cbb
000000b0: b037 873c 675f 6f3c 9090 4abd da12 9ebc
000000c0: 702a 8f3c 573f d33c 7df4 423d 1f83 1ebd
000000d0: 9a99 13b8 333e 9bbc 138a 7abc e25d 1c3d
000000e0: b377 713c 82d2 1c3d 5264 2c3d 056d 36bd
000000f0: 48df 44bd 0832 1ebd dd3a 993c 6746 643c
00000100: 93cf 15bc a38c d9bc ba3d b13c c3d2 b5bc
00000110: cdc7 193d 98e4 3d3d b3ea bbbb 9074 273d
00000120: 9090 953c f226 103d 33b5 f53a 136a 26bc
00000130: 4dc7 3a3b 0dfe 4fbc c76f ee3c e0c8 513c
00000140: 0d4a 1dbd c892 04bd 93e4 39bd 2a93 2dbd
00000150: 536f 733c b709 153d 1a61 023d 1a87 f9bb
00000160: e758 5d3b 23c4 d33c f3ac 1c3d 731f f7bb
00000170: 8f6a 3dbd 0750 6ebc 9a6c 6abc 5241 333d
00000180: 83bc 273d 77c2 f83c 5050 edbc cd59 e13c
00000190: 67c9 2abb f3af a83b 00e0 4a3d 78d8 0e3d
000001a0: d3b5 f1bc 6a5c 493d 8a5e cb3c 17ac d3bc
000001b0: 4599 23bd 93bf 333c 0dd7 493c 976c d83c
000001c0: 1a6e e7bc 9a95 7abb 674d 6abc 0033 653c
000001d0: 5ac4 bdbc 4fd2 163d 8013 30bb 4745 1bbc
000001e0: d392 193c 63ab 17bd 67b0 7dbb dd9b 153d
000001f0: 1816 4a3d f8bf 49bd 00af f93c 53f5 1fbc
00000200: 1a99 ddbc c084 6ebc 8728 523c 504a 2dbd
00000210: ba05 fabc 6787 b33c cd1f f53b c307 463d
00000220: 7a0d edbc 2a67 cabc baaf 233d 1ade 51bb
00000230: ad60 d3bc a79a e73b 8de3 3f3c 63d3 183d
00000240: 5a2c fabb c7fc 493c 00ff 7ebb 13f4 a83c
00000250: 7360 ecbb a776 a53b ba2e ed3c 9525 0fbd
00000260: 48f6 3d3d cd58 40bc 02dc 4bbd 47c7 433d
00000270: 2783 3b3d 5b72 103d d334 fc3c 739c 31bc
00000280: cb88 05bd 87a8 f23c 1026 f13c 87cc 97bc
00000290: 8211 0e3d b828 31bd 4be9 2d3d 3070 fdbc
000002a0: 9012 c03c 5df9 f53c 5d7c 8dbc 808d e1bc
000002b0: c3df 243d bb2e 373d 3790 b4bc 4798 b43c
000002c0: 333d 0dbb c0e4 3f3c 3a7c 093c 924f 00bd
000002d0: cd4c b038 4d8d 0ebb 28cb 3e3d c750 423d
000002e0: 73b5 bcbc 402a 243d 6588 39bd aa6f f23c
000002f0: e040 713c 8a2b 333d 2727 cf3c dafe 503c
00000300: 63ad 46bd 3301 353b b311 6a3b 2775 80bb
00000310: b72f 9e3c c8fe 18bd c0e7 3ebc 3508 473d
00000320: 57c5 c83c a3e9 fd3c 4f5d 18bd 1325 313c
00000330: 731e 0dbc 87f3 ccbc 126a 0ebd fd87 4bbd
00000340: a7cd 663c cd3a bf3a 436c c63c 7368 463c
00000350: 1f3a 293d 9ddd 1c3d f289 253d 2747 063c
00000360: 3343 20bb 2759 86bb f36f 4a3c 0080 3fb7
00000370: 5066 8dbc e0d3 223c b37a 503c d2ea 173d
00000380: 4737 7dbc f32a 7c3c 00b3 db3a c52c 043d
00000390: 1f84 3c3d 736a 313d 4892 49bd 2d4f b9bc
000003a0: 1548 2fbd 0092 fd3a cdac 7e3b 18f5 333d
000003b0: da17 c0bc a7af ce3c 33f4 84ba cd6a da3c
000003c0: b09f 12bd 40f6 9abb 33b9 2fbb 9365 753c
000003d0: 3fd9 1d3d d027 d7bc 9a6d b23b fa3e 4abd
000003e0: f7d2 973c 6a3e fe3c b756 e43c 2be4 313d
000003f0: 709d 31bd 2a33 a03c 43e6 1bbd dd06 fd3c
0.012437725 0.04094381 -0.047737617 -0.03673125 0.0056046667 -0.035023548 0.0017737806 -0.044316452
-0.042333513 0.010563261 -0.039740246 0.008653671 0.027018178 0.019591141 0.021001607 -0.03897464
0.006629586 -0.0018422663 0.027149195 -0.046260994 0.04323873 0.0016900421 0.022595579 -0.02997079
-0.023470974 0.04798094 -0.0030880512 -0.0364286 -0.03814877 -0.01293729 -0.047510743 0.027998311
-0.014547914 0.045198794 0.035082784 0.049638968 0.00822705 0.023731817 -0.042810388 0.02390188
0.023763878 -0.01382761 0.009879547 -0.0038517953 0.016506046 0.014610148 -0.04945427 -0.019296099
0.01747629 0.025787039 0.047596443 -0.038699266 -3.5190584e-05 -0.018950557 -0.0152917085 0.03817547
0.014738011 0.038286693 0.04208786 -0.044537563 -0.0480645 -0.038621932 0.018704826 0.013932801
-0.009143728 -0.026556319 0.021635879 -0.022195226 0.03754406 0.046360582 -0.0057347654 0.040882647
0.01825741 0.03519339 0.0018746018 -0.010157126 0.002850014 -0.012694848 0.029106034 0.01280424
-0.0384007 -0.032366544 -0.045384 -0.042376675 0.014858085 0.036386218 0.031830885 -0.0076149823
0.0033774914 0.025850361 0.038250875 -0.007541591 -0.0462442 -0.014545447 -0.014308119 0.043763466
0.040951263 0.030366166 -0.02896896 0.02750864 -0.0026059987 0.005147928 0.04953003 0.03487441
-0.029505646 0.0491604 0.024825353 -0.025838895 -0.03994109 0.010970968 0.0123193385 0.026418967
-0.028250743 -0.0038236142 -0.014300681 0.01398921 -0.023164917 0.03682166 -0.0026867092 -0.009476966
0.0093733845 -0.03702868 -0.003870988 0.036525596 0.049337476 -0.04925534 0.030478954 -0.00976308
-0.027050544 -0.014558017 0.012827045 -0.042307198 -0.030520309 0.02191515 0.0074805976 0.048347246
-0.02893709 -0.024707396 0.039962508 -0.0032023252 -0.025802935 0.0070679965 0.011711967 0.03731097
-0.0076346816 0.012328333 -0.0038909316 0.020624196 -0.007213646 0.005049545 0.028952945 -0.03494795
0.04637745 -0.011739922 -0.049770363 0.047797468 0.045779373 0.035265308 0.030786907 -0.010840523
-0.03260116 0.029621376 0.029437095 -0.018530143 0.034684666 -0.043251723 0.042458814 -0.030937284
0.023446351 0.030026132 -0.017271215 -0.027533293 0.04025246 0.0447223 -0.022041423 0.022045268
-0.002155137 0.011712253 0.008391434 -0.031325884 8.406639e-05 -0.0021751702 0.046580464 0.047440317
-0.02303574 0.040079355 -0.04529609 0.029594261 0.01472494 0.043742694 0.025287224 0.012756074
-0.0485052 0.0027619123 0.0035716116 -0.0039202156 0.019309862 -0.037352353 -0.011651933 0.04859181
0.024508161 0.030995196 -0.03719836 0.010812062 -0.008613217 -0.025018467 -0.034769125 -0.049690235
0.014087117 0.0014589668 0.024221545 0.012109864 0.041315194 0.038297284 0.040414758 0.008195675
-0.0024454116 -0.0040999833 0.012355792 -1.14142895e-05 -0.0172607 0.00993821 0.012724566 0.037089176
-0.015455074 0.015391099 0.001676172 0.032269258 0.046024438 0.04331441 -0.04921177 -0.022620762
-0.042793352 0.001934588 0.0038860322 0.04393491 -0.023448873 0.025230242 -0.0010143578 0.026662255
-0.03579682 -0.0047290623 -0.0026813268 0.01497783 0.03853726 -0.026264101 0.0054451944 -0.049376465
0.018533213 0.03103562 0.02787338 0.04343049 -0.043363035 0.019555647 -0.03806139 0.030887062

fc1.bias f4 [256]
00000000: affc 25bd 5ac9 5e3c b350 5cbb 03f7 fbbc
00000010: fa78 433c 7826 2b3d 803e 7f3c 20b8 9d3c
00000020: 12ea 1cbd f3d0 813c afc0 14bd e8bb 393d
00000030: 6dce 4ebc 001c 9ebc ad73 6e3c 176e 10bd
00000040: 551d 413d fa14 f93c 30e1 dbbc 1a97 d7bc
00000050: 2d1c 04bc 9f4a 3f3d f351 a23c 3336 013c
00000060: b84c 1e3d b8b0 3abd 7d62 9fbc 90de 18bd
00000070: 6aaa 913c 9b58 433d 27ea ac3c e01e b7bc
00000080: 4bfa 24bd 3207 4bbd 67d6 123d 80a4 723b
00000090: 1d4d 30bd 2a45 32bd 7b8a 07bd 329f 413d
000000a0: 971a 883c 0d8b bbbb dd66 06bd 4d72 033b
000000b0: 239c f83c e3b4 d0bc 9a83 1f3d dd2f a33c
000000c0: 0d47 5ebc 2dc3 bcbc 0fb9 363d 85ab 1b3d
000000d0: 8275 39bd dd74 adbc f39e df3b 9368 5dbc
000000e0: 6097 b3bc c7ab 573c b32b 35bd 08a1 1a3d
000000f0: 3538 0abd da19 493d c7a7 703c 33d9 27bd
00000100: 40da 9fbc 339b 8dbc 5ac4 f4bb 0755 853c
00000110: aaac 36bd 0060 1d39 d3b9 3fbc dd1e f1bc
00000120: 903c bfbc 0df0 cebc 7d79 1dbd 3a17 aebc
00000130: 83eb 3abd b08a 2bbd ea71 ac3c 803a 9c3c
00000140: 5dab bfbc f2de 0abd d34c 3c3c c3f4 973c
00000150: 95e3 323d c0bb 903c 331f 4fba 25f8 0e3d
00000160: 6dec 35bd dacd 943c db79 203d ca8e 113d
00000170: 77ac 9c3c 90bf d7bc a319 09bd 7317 d7bb
00000180: 4d72 d73b 2730 0bbd 9aa1 773c f250 183d
00000190: 7ac1 733c edb0 86bc 82e6 3bbd 2bac 493d
000001a0: f339 cabc c74b 14bd eb17 21bd 3361 9dba
000001b0: b267 223d 27be f13b b371 04bc cd40 de39
000001c0: 4720 14bc fad0 14bc 8d4e 9dbb 03b6 ca3c
000001d0: 97ec 993c 9a86 713c dd55 923c 830c ebbc
000001e0: 777e e1bc 5020 e33c 9260 0f3d 4068 ae3b
000001f0: cdc9 7dbb 701a d03c b3ef 8d3b 0baa 04bd
00000200: 33d5 65bc c31f 853c 5070 853c 27f8 4b3d
00000210: f0cf 07bd 27cc 36bc 1d24 bbbc f767 a7bc
00000220: 52b9 3dbd 6313 22bd 733e 23bc 28aa 21bd
00000230: 423f 10bd b760 223d 006d 24bb 2aca 433d
00000240: 45b6 003d 3727 fd3c 9321 ebbc 737b 4a3c
00000250: b7c1 f13c 1af5 1ebb cac7 c2bc 6779 dcba
00000260: 700a e7bc 8dd7 fa3b 9a32 523b 67ac 98bb
00000270: 8d2e b2bb 8001 b73b 7d29 113d 3dec 2a3d
00000280: 97ab 83bc a79c 2d3d 8374 9bbc b556 49bd
00000290: a358 b4bc e075 25bc 62e7 083d 60d3 f83c
000002a0: 7db3 f8bc 50fb 3bbd 9a61 82bb 67a8 923b
000002b0: 7383 ba3b ed4c 033d 3b5d 2fbd 8d59 b93c
000002c0: a85f 153d 67c9 a23a a2e0 13bd da1d b43b
000002d0: 939c 26bc 472d 85bc 3a72 783c 9d33 07bd
000002e0: 22e5 3e3d 0525 36bd 6721 b33a b047 433d
000002f0: 7558 04bd 70fb d33c 7bac 273d b33e af3c
00000300: cd1a 003a 0020 403a 7beb 41bd 201b 6fbc
00000310: 6383 bd3c 1a0a 213d 477c cbbc 374e c9bc
00000320: 6706 a339 e77d f5bc 0706 403d b24f 2cbd
00000330: 5337 41bd 1516 00bd 1aef f73b 877c febc
00000340: cd1b b0bb dad0 7c3c 4869 073d a81c 1e3d
00000350: 6765 b6ba 624f 3cbd 4ae4 223d 33e6 9bba
00000360: edaa 033d 252c 483d 3aa0 023d 7dd3 223d
00000370: 9ae5 c33b cdd1 eebb 7a7b eabc e0d8 dc3c
00000380: 2d21 563c 3a20 3f3d b3a5 fa3c f7c9 c53c
00000390: 5f44 013d 039f 4cbd ddf6 e0bc 07ce 18bc
000003a0: ba96 02bc 6291 113d ba5d 2b3c 4d58 bdbb
000003b0: 2d0a ffbc baeb 003c 6a9f 343d 4bf5 303d
000003c0: b2f1 2c3d 8368 ffbc 7749 863c 6dc3 343c
000003d0: da51 36bd 7f29 263d 9a1d dbba 6735 053d
000003e0: cdbb 6f3b a0ff 013c 3f9c 0a3d d301 3f3d
000003f0: 9a82 40bb 5a1c 583c cda7 33bd c5cf 313d
-0.04052418 0.013597811 -0.0033617436 -0.030757433 0.0119306985 0.041784734 0.015578866 0.019252837
-0.038309164 0.015846705 -0.03631657 0.045345217 -0.012622458 -0.01930046 0.014553946 -0.03526124
0.047147114 0.03040551 -0.026840776 -0.026317168 -0.008063358 0.046702024 0.019814467 0.007886457
0.038647383 -0.04557869 -0.019456143 -0.037321627 0.017781455 0.047691923 0.021107746 -0.02235359
-0.04027776 -0.04956741 0.035849 0.003702432 -0.04304229 -0.04352299 -0.03309105 0.04727096
0.016614242 -0.0057233633 -0.03281294 0.0020057142 0.03034789 -0.025476879 0.038943864 0.019920284
-0.0135667445 -0.023042286 0.04461008 0.03800537 -0.04527808 -0.021173889 0.006824368 -0.013513702
-0.021922767 0.0131635135 -0.044231128 0.037751228 -0.03374501 0.04909692 0.014688439 -0.04097862
-0.01951325 -0.017285919 -0.007469696 0.016275896 -0.04459826 0.0001500845 -0.011702019 -0.029433662
-0.023344308 -0.02526095 -0.03844594 -0.02125131 -0.045634758 -0.04188031 0.021050412 0.019070864
-0.023397142 -0.033904023 0.011492926 0.018549329 0.04367407 0.017667651 -0.00079010724 0.034904618
-0.044414926 0.018164564 0.03917871 0.035536565 0.019125206 -0.026336461 -0.033471715 -0.0065640747
0.006574905 -0.03398147 0.015114212 0.03718657 0.014877671 -0.016441787 -0.045874126 0.049236458
-0.024685835 -0.03620508 -0.03932945 -0.0012007117 0.039649673 0.0073774043 -0.008083749 0.0004239142
-0.009040899 -0.009083027 -0.0048006237 0.024744993 0.018789573 0.014741564 0.017863208 -0.02869249
-0.027526123 0.027725369 0.035004206 0.005322486 -0.003872502 0.025403231 0.004331553 -0.032388728
-0.014027881 0.016250497 0.016288906 0.049797203 -0.03315729 -0.011157072 -0.022844369 -0.020435316
-0.046319313 -0.03956927 -0.0099636195 -0.039468914 -0.035216577 0.039643016 -0.0025089383 0.04780022
0.031423826 0.030902488 -0.028702533 0.012358534 0.029511316 -0.0024254979 -0.023776907 -0.0016820849
-0.02820322 0.00765509 0.0032073618 -0.004659224 -0.005437678 0.0055848956 0.035439957 0.0417292
-0.016073031 0.042385723 -0.018976456 -0.049154956 -0.022014922 -0.010098904 0.03342379 0.030374229
-0.030359024 -0.045893967 -0.00397892 0.0044756415 0.0056919395 0.032055784 -0.04281352 0.022625709
0.036468178 0.0012419642 -0.0361029 0.0054967226 -0.010169166 -0.016256941 0.0151639525 -0.033008207
0.046605237 -0.0444689 0.0013666571 0.04767579 -0.03231092 0.02587673 0.040935975 0.021392202
0.0004886806 0.0007328987 -0.047343712 -0.014593869 0.02313394 0.039316274 -0.024839533 -0.024573429
0.00031094553 -0.029967261 0.046880748 -0.04206819 -0.047171902 -0.03127106 0.007566345 -0.031065239
-0.005374408 0.0154306535 0.03305939 0.038601547 -0.0013915718 -0.045974143 0.039768495 -0.0011894166
0.03214543 0.048870225 0.031891085 0.039752472 0.0059782984 -0.007288194 -0.028623331 0.026958883
0.013069433 0.046661593 0.03059659 0.024144156 0.031559344 -0.049956333 -0.027461464 -0.0093264645
-0.007970506 0.03553904 0.010459358 -0.0057783485 -0.031132782 0.007868702 0.04409734 0.04320268
0.042222686 -0.031177765 0.016392453 0.011032921 -0.044511653 0.040566918 -0.0016717196 0.03252163
0.0036580444 0.007934481 0.033840414 0.0466326 -0.002937472 0.013190353 -0.0438612 0.043411035

fc2.weight f4 [10, 256]
00000000: 643f 003d 602c 783b 0e5c 113d b0fe e73c
00000010: 8059 7cbc ea77 1f3d 10b2 a73c 00fc f6ba
00000020: f27d 6e3d e8e9 b13c e28e 7cbd 1cd6 1dbd
00000030: 5a49 233d 6c15 6dbd a0f1 7bbb 0086 3b3a
00000040: 80ec 80ba f4ff e6bc e0a4 6f3d 508f 8c3b
00000050: ee87 023d 1850 bebc e0f9 ebbb 5ac6 7d3d
00000060: 206a 383c f04b b73c 0648 4dbd 60f8 073b
00000070: d4bd ea3c 1050 85bb 1859 66bd a83f 793d
00000080: 3a0e 703d 000b c53a dcbb 793d 78cf 853c
00000090: 40dc 2a3c 6805 c23c 88ec 323d e04f 123b
000000a0: b869 6ebd 5425 08bd 14c0 6e3d 5ee5 3b3d
000000b0: dc74 df3c 1c98 d03c a471 a8bc 48e7 76bc
000000c0: ce30 50bd f0bb 71bd 568b 08bd 84ca cc3c
000000d0: 68cb 543d 7a79 403d 4cec d7bc 96d0 63bd
000000e0: 0a75 543d e41a 1c3d 402c 09bc dcbe 42bd
000000f0: 8ca6 dcbc 68b2 bcbc 22ef 07bd 9cd7 efbc
00000100: a0f9 06bd c0dc f9bc 681c 183c 4cc1 1f3d
00000110: 00f2 5939 847d 10bd f8d2 09bc b036 3bbd
00000120: 6a34 1a3d 0c00 cdbc 8083 66bd 1e54 7cbd
00000130: b60b 3e3d 5053 d5bc 5aa8 6b3d f4c0 6a3d
00000140: a4eb 07bd e8ca 67bc 1ea3 093d 409c f13b
00000150: ceca 013d 7048 5b3c 74ea c7bc 50c7 f03b
00000160: e0fa 8d3b 724d 1b3d b858 c33c c0fa fbbb
00000170: a044 34bc de3a 3dbd e0a9 9dbb e46e 35bd
00000180: 3262 3abd 0009 eebb 9c54 b0bc c8a3 41bc
00000190: c0e6 8cbc b8e2 d13c f06e d3bb 26ab 653d
000001a0: 6016 7e3d 5ec7 413d 90a4 4f3d f08e abbc
000001b0: da45 45bd 4a51 6bbd 50e8 0ebd 3085 20bc
000001c0: 1434 413d c87a 6cbd d2f1 4c3d a077 58bb
000001d0: d086 b43b 9c01 2cbd 2ad1 53bd fc98 563d
000001e0: 344e 99bc 6ae1 363d 46ed 5a3d 404d ebbc
000001f0: 78d6 f2bc 402a ef3c 4008 e03c c444 103d
00000200: 7c04 b83c 7066 3f3c 7031 473c 7e1a 11bd
00000210: 24a9 773d 00a8 69bd 78a7 7fbd 2cac d9bc
00000220: 92e5 103d e0ed acbb 4851 0f3d 38d4 efbc
00000230: 9c92 353d 5014 ebbb e407 20bd 3049 9cbc
00000240: 0079 87ba ec75 8c3c 2047 46bb d826 61bd
00000250: 2479 1abd 2c3b 733d 7e91 543d 4aed 59bd
00000260: 30a9 e3bc a0e6 ad3c e0e0 353c 4ab1 133d
00000270: 4686 42bd 4cdd 9ebc d4f1 a33c d2ef 1e3d
00000280: 6040 9abb 40e6 d63a a02c 4c3c 08c7 0bbc
00000290: 402b 093c 5ea3 3b3d e032 813b 603b c9bb
000002a0: e69c 33bd 2e05 233d 00a0 cc37 68d9 d1bc
000002b0: 306e d2bb 9c98 fd3c a09c 51bd 18bc 223c
000002c0: f26d 62bd c8cb e2bc bc5d 4f3d 6cad 713d
000002d0: 8c3d 4abd a0d7 e73b bc0d 0dbd 5c56 603d
000002e0: b081 053c 7a1c 183d a050 70bb 0c1d 54bd
000002f0: 7688 713d 1435 36bd e007 36bb 92f1 793d
00000300: 80bd 873b 6671 043d 40eb cebc a003 01bd
00000310: ac0d f63c bea3 3bbd 8432 ba3c 00f8 6c3c
00000320: 7670 1a3d 788f ee3c bab6 75bd 7862 08bc
00000330: 28a9 2f3d 00bb 713c d4d2 db3c e41b 983c
00000340: e818 0dbd 0470 f33c 943c 13bd 6cb1 75bd
00000350: f65a 31bd f046 8ebc 482c 64bc aa23 3c3d
00000360: c038 efbc 4ce0 4abd b023 4ebd d8fa 173d
00000370: 86c2 67bd 56ff 2dbd c04c 233c 40c8 04bd
00000380: 280e 073c 8878 e1bc e054 633d 9046 cabc
00000390: 4cfb 88bc 644a fa3c 603d e63b f406 013d
000003a0: 5ccf 4b3d 20fa e6bc b01c d33b e0d8 813b
000003b0: 5e37 56bd c00c a73c 3872 783d 9232 3d3d
000003c0: b679 41bd 000f be3b 90db 7c3d 58cf acbc
000003d0: 48a3 3cbd 8c2d 80bc 9877 bd3c 783e fc3c
000003e0: 2089 063c 4079 f23a 00ca 3e3c 58b8 d7bc
000003f0: 2c64 a1bc d402 f5bc a020 c83c 5e77 61bd
0.031310454 0.0037868246 0.03548818 0.028319687 -0.015402198 0.03893272 0.020470649 -0.0018843412
0.05822558 0.02171798 -0.0616597 -0.03853427 0.039864875 -0.057881758 -0.003844358 0.00071534514
-0.0009836107 -0.02819822 0.058506846 0.004289545 0.031867914 -0.023231551 -0.0072014183 0.06195674
0.011255771 0.022375077 -0.050117515 0.0020747408 0.02865497 -0.004068382 -0.05623731 0.060851723
0.058607318 0.0015033185 0.060970172 0.01633428 0.010428488 0.023684219 0.043682605 0.0022325441
-0.05820629 -0.033238724 0.05828865 0.04587304 0.027277403 0.025463156 -0.020562 -0.01506979
-0.050827794 -0.05901712 -0.033336006 0.02499891 0.051951796 0.04699085 -0.026357792 -0.055618845
0.05186943 0.038111582 -0.008372366 -0.0475453 -0.026934884 -0.02303429 -0.03318704 -0.029277615
-0.032952905 -0.03050077 0.009284116 0.0390027 0.00020784885 -0.03527595 -0.008412115 -0.04570645
0.037647642 -0.025024436 -0.056277752 -0.061603658 0.046397887 -0.026040703 0.0575336 0.05731292
-0.03318371 -0.014147498 0.033602826 0.007373363 0.03168755 0.01338397 -0.024403788 0.0073479787
0.004332885 0.037915654 0.023846015 -0.007689804 -0.01100269 -0.04619872 -0.0048115104 -0.044295207
-0.045503803 -0.0072642565 -0.02152472 -0.011818834 -0.017199874 0.025620803 -0.0064524338 0.056071423
0.062033057 0.047309272 0.05069405 -0.020942181 -0.04816232 -0.05745057 -0.03488952 -0.009797379
0.047168806 -0.05773428 0.050035305 -0.0033030286 0.005509235 -0.041993722 -0.051713146 0.05239199
-0.018714048 0.044648565 0.053448938 -0.02872336 -0.029643282 0.029194951 0.027347684 0.03522183
0.022463076 0.011682138 0.012157783 -0.035425656 0.06046404 -0.057044983 -0.06241557 -0.026571356
0.035375185 -0.0052773803 0.034989625 -0.029275998 0.04432927 -0.0071740523 -0.039070025 -0.019077867
-0.0010335743 0.017146073 -0.0030254796 -0.054968685 -0.037713185 0.059382603 0.051896565 -0.053204812
-0.027790636 0.021228135 0.011100978 0.036057748 -0.047491334 -0.019392632 0.020012774 0.03880293
-0.004707381 0.0016395524 0.012461811 -0.0085313395 0.008372128 0.045810096 0.0039428324 -0.0061411113
-0.043850802 0.03979986 2.43932e-05 -0.025616363 -0.006421827 0.030956559 -0.05117476 0.00993254
-0.055280633 -0.027685061 0.0506265 0.05900328 -0.049375102 0.007075265 -0.034436926 0.05476986
0.008148596 0.037136532 -0.003666915 -0.051785514 0.05896803 -0.044484213 -0.002777569 0.061021395
0.004142463 0.032334708 -0.02525866 -0.031497598 0.030035816 -0.045810454 0.022729166 0.014463425
0.037704907 0.029121146 -0.059988715 -0.008324258 0.04288593 0.014754057 0.02683393 0.018567987
-0.03444758 0.0297165 -0.035946444 -0.059983656 -0.043299638 -0.01736781 -0.013926573 0.04593245
-0.029201865 -0.049530312 -0.050327003 0.037104458 -0.056581996 -0.042479835 0.009967029 -0.032417536
0.008243121 -0.027523294 0.055500865 -0.02469185 -0.01672139 0.03055305 0.0070263594 0.03150077
0.0497583 -0.02819544 0.006442629 0.003962621 -0.052298896 0.020391822 0.060655802 0.046190806
-0.047235213 0.005800128 0.06173283 -0.021094963 -0.046054155 -0.015646718 0.023128316 0.030791506
0.008211404 0.001849927 0.01164484 -0.02633302 -0.019701086 -0.029908575 0.02442962 -0.055045478

fc2.bias f4 [10]
00000000: 3a0d 7d3d 801a 9d3a 72eb 45bd eaed 4b3d
00000010: fa0b 74bd 7c25 173d 8c63 04bd 1038 f43b
00000020: 50de 163d 94ee 5f3d
0.061780192 0.0011986047 -0.04832024 0.04978744 -0.059581734 0.036900982 -0.032321498 0.0074529722
0.036833107 0.054670885
